Word2Vec CNN model built: 
Model: "Word2Vec_CNN"
_________________________________________________________________
 Layer (type)                Output Shape              Param #   
=================================================================
 embedding (Embedding)       (None, 700, 300)          2400000   
                                                                 
 conv1d (Conv1D)             (None, 700, 250)          225250    
                                                                 
 max_pooling1d (MaxPooling1D  (None, 14, 250)          0         
 )                                                               
                                                                 
 conv1d_1 (Conv1D)           (None, 14, 250)           125250    
                                                                 
 max_pooling1d_1 (MaxPooling  (None, 1, 250)           0         
 1D)                                                             
                                                                 
 flatten (Flatten)           (None, 250)               0         
                                                                 
 dense (Dense)               (None, 250)               62750     
                                                                 
 dense_1 (Dense)             (None, 7)                 1757      
                                                                 
=================================================================
Total params: 2,815,007
Trainable params: 415,007
Non-trainable params: 2,400,000
_________________________________________________________________
WARNING:tensorflow:`write_grads` will be ignored in TensorFlow 2.0 for the `TensorBoard` Callback.
WARNING:tensorflow:`batch_size` is no longer needed in the `TensorBoard` Callback and will be ignored in TensorFlow 2.0.
…
