Word2Vec LSTM model built: 
Model: "Word2Vec_LSTM"
_________________________________________________________________
 Layer (type)                Output Shape              Param #   
=================================================================
 embedding (Embedding)       (None, 700, 300)          2400000   
                                                                 
 lstm (LSTM)                 (None, 250)               551000    
                                                                 
 flatten (Flatten)           (None, 250)               0         
                                                                 
 dense (Dense)               (None, 250)               62750     
                                                                 
 dense_1 (Dense)             (None, 7)                 1757      
                                                                 
=================================================================
Total params: 3,015,507
Trainable params: 615,507
Non-trainable params: 2,400,000
_________________________________________________________________
WARNING:tensorflow:`write_grads` will be ignored in TensorFlow 2.0 for the `TensorBoard` Callback.
WARNING:tensorflow:`batch_size` is no longer needed in the `TensorBoard` Callback and will be ignored in TensorFlow 2.0.
…
